…
    checkpoint_print: 200
    F_feature_layer: 34
    F_weights: 1.0
    F_lossfn_type: l1
    F_use_input_norm: True
    F_use_range_norm: False
    G_optimizer_betas: [0.9, 0.999]
    G_scheduler_restart_weights: 1
  ]
  opt_path: options/swinir/train_swinir_student.json
  is_train: True
  merge_bn: False
  merge_bn_startpoint: -1
  find_unused_parameters: False
  use_static_graph: False
  num_gpu: 1
  rank: 0
  world_size: 1

25-12-11 22:58:09.767 : Number of train images: 900, iters: 29
25-12-11 22:58:11.666 : 
Networks name: SwinIR_Student
Params number: 988959
Net structure:
SwinIR_Student(
  (conv_first): Conv2d(3, 60, kernel_size=(3, 3), stride=(1, 1), padding=(1, 1))
  (patch_embed): PatchEmbed(
    (norm): LayerNorm((60,), eps=1e-05, elementwise_affine=True)
  )
  (patch_unembed): PatchUnEmbed()
  (pos_drop): Dropout(p=0.0, inplace=False)
  (layers): ModuleList(
    (0): RSTB(
      (residual_group): BasicLayer(
        dim=60, input_resolution=(64, 64), depth=4
        (blocks): ModuleList(
          (0): SwinTransformerBlock(
            dim=60, input_resolution=(64, 64), num_heads=6, window_size=8, shift_size=0, mlp_ratio=2
            (norm1): LayerNorm((60,), eps=1e-05, elementwise_affine=True)
            (attn): WindowAttention(
              dim=60, window_size=(8, 8), num_heads=6
              (qkv): Linear(in_features=60, out_features=180, bias=True)
              (attn_drop): Dropout(p=0.0, inplace=False)
              (proj): Linear(in_features=60, out_features=60, bias=True)
              (proj_drop): Dropout(p=0.0, inplace=False)
              (softmax): Softmax(dim=-1)
            )
            (drop_path): Identity()
            (norm2): LayerNorm((60,), eps=1e-05, elementwise_affine=True)
            (mlp): Mlp(
              (fc1): Linear(in_features=60, out_features=120, bias=True)
              (act): GELU(approximate='none')
              (fc2): Linear(in_features=120, out_features=60, bias=True)
              (drop): Dropout(p=0.0, inplace=False)
            )
          )
          (1): SwinTransformerBlock(
            dim=60, input_resolution=(64, 64), num_heads=6, window_size=8, shift_size=4, mlp_ratio=2
            (norm1): LayerNorm((60,), eps=1e-05, elementwise_affine=True)
            (attn): WindowAttention(
              dim=60, window_size=(8, 8), num_heads=6
              (qkv): Linear(in_features=60, out_features=180, bias=True)
              (attn_drop): Dropout(p=0.0, inplace=False)
              (proj): Linear(in_features=60, out_features=60, bias=True)
              (proj_drop): Dropout(p=0.0, inplace=False)
              (softmax): Softmax(dim=-1)
            )
            (drop_path): DropPath(drop_prob=0.007)
            (norm2): LayerNorm((60,), eps=1e-05, elementwise_affine=True)
            (mlp): Mlp(
              (fc1): Linear(in_features=60, out_features=120, bias=True)
              (act): GELU(approximate='none')
              (fc2): Linear(in_features=120, out_features=60, bias=True)
              (drop): Dropout(p=0.0, inplace=False)
            )
          )
          (2): SwinTransformerBlock(
            dim=60, input_resolution=(64, 64), num_heads=6, window_size=8, shift_size=0, mlp_ratio=2
            (norm1): LayerNorm((60,), eps=1e-05, elementwise_affine=True)
            (attn): WindowAttention(
              dim=60, window_size=(8, 8), num_heads=6
              (qkv): Linear(in_features=60, out_features=180, bias=True)
              (attn_drop): Dropout(p=0.0, inplace=False)
              (proj): Linear(in_features=60, out_features=60, bias=True)
              (proj_drop): Dropout(p=0.0, inplace=False)
              (softmax): Softmax(dim=-1)
            )
            (drop_path): DropPath(drop_prob=0.013)
            (norm2): LayerNorm((60,), eps=1e-05, elementwise_affine=True)
            (mlp): Mlp(
              (fc1): Linear(in_features=60, out_features=120, bias=True)
              (act): GELU(approximate='none')
              (fc2): Linear(in_features=120, out_features=60, bias=True)
              (drop): Dropout(p=0.0, inplace=False)
            )
          )
          (3): SwinTransformerBlock(
            dim=60, input_resolution=(64, 64), num_heads=6, window_size=8, shift_size=4, mlp_ratio=2
            (norm1): LayerNorm((60,), eps=1e-05, elementwise_affine=True)
            (attn): WindowAttention(
              dim=60, window_size=(8, 8), num_heads=6
              (qkv): Linear(in_features=60, out_features=180, bias=True)
              (attn_drop): Dropout(p=0.0, inplace=False)
              (proj): Linear(in_features=60, out_features=60, bias=True)
              (proj_drop): Dropout(p=0.0, inplace=False)
              (softmax): Softmax(dim=-1)
            )
            (drop_path): DropPath(drop_prob=0.020)
            (norm2): LayerNorm((60,), eps=1e-05, elementwise_affine=True)
            (mlp): Mlp(
              (fc1): Linear(in_features=60, out_features=120, bias=True)
              (act): GELU(approximate='none')
              (fc2): Linear(in_features=120, out_features=60, bias=True)
              (drop): Dropout(p=0.0, inplace=False)
            )
          )
        )
      )
      (conv): Conv2d(60, 60, kernel_size=(3, 3), stride=(1, 1), padding=(1, 1))
      (patch_embed): PatchEmbed()
      (patch_unembed): PatchUnEmbed()
    )
    (1): RSTB(
      (residual_group): BasicLayer(
        dim=60, input_resolution=(64, 64), depth=4
        (blocks): ModuleList(
          (0): SwinTransformerBlock(
            dim=60, input_resolution=(64, 64), num_heads=6, window_size=8, shift_size=0, mlp_ratio=2
            (norm1): LayerNorm((60,), eps=1e-05, elementwise_affine=True)
            (attn): WindowAttention(
              dim=60, window_size=(8, 8), num_heads=6
              (qkv): Linear(in_features=60, out_features=180, bias=True)
              (attn_drop): Dropout(p=0.0, inplace=False)
              (proj): Linear(in_features=60, out_features=60, bias=True)
              (proj_drop): Dropout(p=0.0, inplace=False)
              (softmax): Softmax(dim=-1)
            )
            (drop_path): DropPath(drop_prob=0.027)
            (norm2): LayerNorm((60,), eps=1e-05, elementwise_affine=True)
            (mlp): Mlp(
              (fc1): Linear(in_features=60, out_features=120, bias=True)
              (act): GELU(approximate='none')
              (fc2): Linear(in_features=120, out_features=60, bias=True)
              (drop): Dropout(p=0.0, inplace=False)
            )
          )
          (1): SwinTransformerBlock(
            dim=60, input_resolution=(64, 64), num_heads=6, window_size=8, shift_size=4, mlp_ratio=2
            (norm1): LayerNorm((60,), eps=1e-05, elementwise_affine=True)
            (attn): WindowAttention(
              dim=60, window_size=(8, 8), num_heads=6
              (qkv): Linear(in_features=60, out_features=180, bias=True)
              (attn_drop): Dropout(p=0.0, inplace=False)
              (proj): Linear(in_features=60, out_features=60, bias=True)
              (proj_drop): Dropout(p=0.0, inplace=False)
              (softmax): Softmax(dim=-1)
            )
            (drop_path): DropPath(drop_prob=0.033)
            (norm2): LayerNorm((60,), eps=1e-05, elementwise_affine=True)
            (mlp): Mlp(
              (fc1): Linear(in_features=60, out_features=120, bias=True)
              (act): GELU(approximate='none')
              (fc2): Linear(in_features=120, out_features=60, bias=True)
              (drop): Dropout(p=0.0, inplace=False)
            )
          )
          (2): SwinTransformerBlock(
            dim=60, input_resolution=(64, 64), num_heads=6, window_size=8, shift_size=0, mlp_ratio=2
            (norm1): LayerNorm((60,), eps=1e-05, elementwise_affine=True)
            (attn): WindowAttention(
              dim=60, window_size=(8, 8), num_heads=6
              (qkv): Linear(in_features=60, out_features=180, bias=True)
              (attn_drop): Dropout(p=0.0, inplace=False)
              (proj): Linear(in_features=60, out_features=60, bias=True)
              (proj_drop): Dropout(p=0.0, inplace=False)
              (softmax): Softmax(dim=-1)
            )
            (drop_path): DropPath(drop_prob=0.040)
            (norm2): LayerNorm((60,), eps=1e-05, elementwise_affine=True)
            (mlp): Mlp(
              (fc1): Linear(in_features=60, out_features=120, bias=True)
              (act): GELU(approximate='none')
              (fc2): Linear(in_features=120, out_features=60, bias=True)
              (drop): Dropout(p=0.0, inplace=False)
            )
          )
          (3): SwinTransformerBlock(
            dim=60, input_resolution=(64, 64), num_heads=6, window_size=8, shift_size=4, mlp_ratio=2
            (norm1): LayerNorm((60,), eps=1e-05, elementwise_affine=True)
            (attn): WindowAttention(
              dim=60, window_size=(8, 8), num_heads=6
              (qkv): Linear(in_features=60, out_features=180, bias=True)
              (attn_drop): Dropout(p=0.0, inplace=False)
              (proj): Linear(in_features=60, out_features=60, bias=True)
              (proj_drop): Dropout(p=0.0, inplace=False)
              (softmax): Softmax(dim=-1)
            )
            (drop_path): DropPath(drop_prob=0.047)
            (norm2): LayerNorm((60,), eps=1e-05, elementwise_affine=True)
            (mlp): Mlp(
              (fc1): Linear(in_features=60, out_features=120, bias=True)
              (act): GELU(approximate='none')
              (fc2): Linear(in_features=120, out_features=60, bias=True)
              (drop): Dropout(p=0.0, inplace=False)
            )
          )
        )
      )
      (conv): Conv2d(60, 60, kernel_size=(3, 3), stride=(1, 1), padding=(1, 1))
      (patch_embed): PatchEmbed()
      (patch_unembed): PatchUnEmbed()
    )
    (2): RSTB(
      (residual_group): BasicLayer(
        dim=60, input_resolution=(64, 64), depth=4
        (blocks): ModuleList(
          (0): SwinTransformerBlock(
            dim=60, input_resolution=(64, 64), num_heads=6, window_size=8, shift_size=0, mlp_ratio=2
            (norm1): LayerNorm((60,), eps=1e-05, elementwise_affine=True)
            (attn): WindowAttention(
              dim=60, window_size=(8, 8), num_heads=6
              (qkv): Linear(in_features=60, out_features=180, bias=True)
              (attn_drop): Dropout(p=0.0, inplace=False)
              (proj): Linear(in_features=60, out_features=60, bias=True)
              (proj_drop): Dropout(p=0.0, inplace=False)
              (softmax): Softmax(dim=-1)
            )
            (drop_path): DropPath(drop_prob=0.053)
            (norm2): LayerNorm((60,), eps=1e-05, elementwise_affine=True)
            (mlp): Mlp(
              (fc1): Linear(in_features=60, out_features=120, bias=True)
              (act): GELU(approximate='none')
              (fc2): Linear(in_features=120, out_features=60, bias=True)
              (drop): Dropout(p=0.0, inplace=False)
            )
          )
          (1): SwinTransformerBlock(
            dim=60, input_resolution=(64, 64), num_heads=6, window_size=8, shift_size=4, mlp_ratio=2
            (norm1): LayerNorm((60,), eps=1e-05, elementwise_affine=True)
            (attn): WindowAttention(
              dim=60, window_size=(8, 8), num_heads=6
              (qkv): Linear(in_features=60, out_features=180, bias=True)
              (attn_drop): Dropout(p=0.0, inplace=False)
              (proj): Linear(in_features=60, out_features=60, bias=True)
              (proj_drop): Dropout(p=0.0, inplace=False)
              (softmax): Softmax(dim=-1)
            )
            (drop_path): DropPath(drop_prob=0.060)
            (norm2): LayerNorm((60,), eps=1e-05, elementwise_affine=True)
            (mlp): Mlp(
              (fc1): Linear(in_features=60, out_features=120, bias=True)
              (act): GELU(approximate='none')
              (fc2): Linear(in_features=120, out_features=60, bias=True)
              (drop): Dropout(p=0.0, inplace=False)
            )
          )
          (2): SwinTransformerBlock(
            dim=60, input_resolution=(64, 64), num_heads=6, window_size=8, shift_size=0, mlp_ratio=2
            (norm1): LayerNorm((60,), eps=1e-05, elementwise_affine=True)
            (attn): WindowAttention(
              dim=60, window_size=(8, 8), num_heads=6
              (qkv): Linear(in_features=60, out_features=180, bias=True)
              (attn_drop): Dropout(p=0.0, inplace=False)
              (proj): Linear(in_features=60, out_features=60, bias=True)
              (proj_drop): Dropout(p=0.0, inplace=False)
              (softmax): Softmax(dim=-1)
            )
            (drop_path): DropPath(drop_prob=0.067)
            (norm2): LayerNorm((60,), eps=1e-05, elementwise_affine=True)
            (mlp): Mlp(
              (fc1): Linear(in_features=60, out_features=120, bias=True)
              (act): GELU(approximate='none')
              (fc2): Linear(in_features=120, out_features=60, bias=True)
              (drop): Dropout(p=0.0, inplace=False)
            )
          )
          (3): SwinTransformerBlock(
            dim=60, input_resolution=(64, 64), num_heads=6, window_size=8, shift_size=4, mlp_ratio=2
            (norm1): LayerNorm((60,), eps=1e-05, elementwise_affine=True)
            (attn): WindowAttention(
              dim=60, window_size=(8, 8), num_heads=6
              (qkv): Linear(in_features=60, out_features=180, bias=True)
              (attn_drop): Dropout(p=0.0, inplace=False)
              (proj): Linear(in_features=60, out_features=60, bias=True)
              (proj_drop): Dropout(p=0.0, inplace=False)
              (softmax): Softmax(dim=-1)
            )
            (drop_path): DropPath(drop_prob=0.073)
            (norm2): LayerNorm((60,), eps=1e-05, elementwise_affine=True)
            (mlp): Mlp(
              (fc1): Linear(in_features=60, out_features=120, bias=True)
              (act): GELU(approximate='none')
              (fc2): Linear(in_features=120, out_features=60, bias=True)
              (drop): Dropout(p=0.0, inplace=False)
            )
          )
        )
      )
      (conv): Conv2d(60, 60, kernel_size=(3, 3), stride=(1, 1), padding=(1, 1))
      (patch_embed): PatchEmbed()
      (patch_unembed): PatchUnEmbed()
    )
    (3): RSTB(
      (residual_group): BasicLayer(
        dim=60, input_resolution=(64, 64), depth=4
        (blocks): ModuleList(
          (0): SwinTransformerBlock(
            dim=60, input_resolution=(64, 64), num_heads=6, window_size=8, shift_size=0, mlp_ratio=2
            (norm1): LayerNorm((60,), eps=1e-05, elementwise_affine=True)
            (attn): WindowAttention(
              dim=60, window_size=(8, 8), num_heads=6
              (qkv): Linear(in_features=60, out_features=180, bias=True)
              (attn_drop): Dropout(p=0.0, inplace=False)
              (proj): Linear(in_features=60, out_features=60, bias=True)
              (proj_drop): Dropout(p=0.0, inplace=False)
              (softmax): Softmax(dim=-1)
            )
            (drop_path): DropPath(drop_prob=0.080)
            (norm2): LayerNorm((60,), eps=1e-05, elementwise_affine=True)
            (mlp): Mlp(
              (fc1): Linear(in_features=60, out_features=120, bias=True)
              (act): GELU(approximate='none')
              (fc2): Linear(in_features=120, out_features=60, bias=True)
              (drop): Dropout(p=0.0, inplace=False)
            )
          )
          (1): SwinTransformerBlock(
            dim=60, input_resolution=(64, 64), num_heads=6, window_size=8, shift_size=4, mlp_ratio=2
            (norm1): LayerNorm((60,), eps=1e-05, elementwise_affine=True)
            (attn): WindowAttention(
              dim=60, window_size=(8, 8), num_heads=6
              (qkv): Linear(in_features=60, out_features=180, bias=True)
              (attn_drop): Dropout(p=0.0, inplace=False)
              (proj): Linear(in_features=60, out_features=60, bias=True)
              (proj_drop): Dropout(p=0.0, inplace=False)
              (softmax): Softmax(dim=-1)
            )
            (drop_path): DropPath(drop_prob=0.087)
            (norm2): LayerNorm((60,), eps=1e-05, elementwise_affine=True)
            (mlp): Mlp(
              (fc1): Linear(in_features=60, out_features=120, bias=True)
              (act): GELU(approximate='none')
              (fc2): Linear(in_features=120, out_features=60, bias=True)
              (drop): Dropout(p=0.0, inplace=False)
            )
          )
          (2): SwinTransformerBlock(
            dim=60, input_resolution=(64, 64), num_heads=6, window_size=8, shift_size=0, mlp_ratio=2
            (norm1): LayerNorm((60,), eps=1e-05, elementwise_affine=True)
            (attn): WindowAttention(
              dim=60, window_size=(8, 8), num_heads=6
              (qkv): Linear(in_features=60, out_features=180, bias=True)
              (attn_drop): Dropout(p=0.0, inplace=False)
              (proj): Linear(in_features=60, out_features=60, bias=True)
              (proj_drop): Dropout(p=0.0, inplace=False)
              (softmax): Softmax(dim=-1)
            )
            (drop_path): DropPath(drop_prob=0.093)
            (norm2): LayerNorm((60,), eps=1e-05, elementwise_affine=True)
            (mlp): Mlp(
              (fc1): Linear(in_features=60, out_features=120, bias=True)
              (act): GELU(approximate='none')
              (fc2): Linear(in_features=120, out_features=60, bias=True)
              (drop): Dropout(p=0.0, inplace=False)
            )
          )
          (3): SwinTransformerBlock(
            dim=60, input_resolution=(64, 64), num_heads=6, window_size=8, shift_size=4, mlp_ratio=2
            (norm1): LayerNorm((60,), eps=1e-05, elementwise_affine=True)
            (attn): WindowAttention(
              dim=60, window_size=(8, 8), num_heads=6
              (qkv): Linear(in_features=60, out_features=180, bias=True)
              (attn_drop): Dropout(p=0.0, inplace=False)
              (proj): Linear(in_features=60, out_features=60, bias=True)
              (proj_drop): Dropout(p=0.0, inplace=False)
              (softmax): Softmax(dim=-1)
            )
            (drop_path): DropPath(drop_prob=0.100)
            (norm2): LayerNorm((60,), eps=1e-05, elementwise_affine=True)
            (mlp): Mlp(
              (fc1): Linear(in_features=60, out_features=120, bias=True)
              (act): GELU(approximate='none')
              (fc2): Linear(in_features=120, out_features=60, bias=True)
              (drop): Dropout(p=0.0, inplace=False)
            )
          )
        )
      )
      (conv): Conv2d(60, 60, kernel_size=(3, 3), stride=(1, 1), padding=(1, 1))
      (patch_embed): PatchEmbed()
      (patch_unembed): PatchUnEmbed()
    )
  )
  (norm): LayerNorm((60,), eps=1e-05, elementwise_affine=True)
  (conv_after_body): Conv2d(60, 60, kernel_size=(3, 3), stride=(1, 1), padding=(1, 1))
  (conv_before_upsample): Sequential(
    (0): Conv2d(60, 64, kernel_size=(3, 3), stride=(1, 1), padding=(1, 1))
    (1): LeakyReLU(negative_slope=0.01, inplace=True)
  )
  (upsample): Upsample(
    (0): Conv2d(64, 256, kernel_size=(3, 3), stride=(1, 1), padding=(1, 1))
    (1): PixelShuffle(upscale_factor=2)
    (2): Conv2d(64, 256, kernel_size=(3, 3), stride=(1, 1), padding=(1, 1))
    (3): PixelShuffle(upscale_factor=2)
  )
  (conv_last): Conv2d(64, 3, kernel_size=(3, 3), stride=(1, 1), padding=(1, 1))
)

25-12-11 22:58:11.748 : 
 |  mean  |  min   |  max   |  std   || shape               
 | -0.002 | -0.192 |  0.192 |  0.109 | torch.Size([60, 3, 3, 3]) || conv_first.weight
 | -0.006 | -0.177 |  0.192 |  0.111 | torch.Size([60]) || conv_first.bias
 |  1.000 |  1.000 |  1.000 |  0.000 | torch.Size([60]) || patch_embed.norm.weight
 |  0.000 |  0.000 |  0.000 |  0.000 | torch.Size([60]) || patch_embed.norm.bias
…
